feature_extraction/oae_trained.pt (torch, 192915 bytes, 60 tensors)

weight f4 [160, 16]
0.20607732 0.18222776 0.018219547 0.24486634 -0.062463954 -0.0054451856 -0.19015415 0.20799059
0.20381245 -0.18783946 0.22753063 -0.00757306 0.20283176 0.039407946 0.057636935 0.021429794
0.2920783 0.038502846 -0.14082296 0.013614242 -0.09835652 -0.06770584 -0.010273932 0.16647878
-0.21541229 -0.14853033 0.028874246 -0.17552707 0.0511852 -0.20210284 0.21849051 -0.06581471
0.21502125 -0.030614948 -0.13894266 0.086593665 0.010042244 0.20066892 0.10821495 -0.0671055
0.100910075 -0.03572797 0.17844838 0.20713048 0.029816186 -0.06101837 0.047500454 0.16888271
-0.05325546 -0.45683974 -0.2296103 -0.020853648 -0.13681781 0.27275783 0.0673635 -0.08632787
0.020081548 -0.02383424 0.22832184 -0.08377642 0.025490396 -0.12019283 -0.01784945 -0.03753627
0.08622373 -0.11470349 0.27440462 -0.09386449 -0.0826955 -0.20868164 0.27592885 0.025111446
0.2634727 -0.16650194 -0.2708816 -0.1582117 -0.090419784 0.13144349 0.109116025 0.12754746
-0.09157474 -0.16001627 0.20132999 0.10975557 0.08474966 0.034379914 -0.09748413 -0.3965329
-0.097910605 0.077225454 0.07058701 -0.04588065 0.034533963 0.074475646 -0.17262045 -0.038773485
0.19205867 -0.16883335 -0.003324794 -0.1075844 -0.114147805 0.050182264 -0.060148224 -0.19066368
-0.02520081 -0.054869104 -0.301962 -0.01910376 -0.18299958 -0.2783158 0.26436648 0.16131188
0.17131267 -0.26331884 -0.29108435 -0.05347947 0.021856165 -0.16583742 -0.16470286 -0.1819113
0.017370643 -0.026648283 0.119114466 -0.07665881 -0.073921174 -0.019064987 -0.064281784 -0.06234929
0.10363914 0.0943536 0.23100583 0.1051324 -0.13451102 0.2719461 0.016439004 -0.030783875
-0.15258059 -0.23636621 0.07953283 -0.12191906 0.07417922 -0.22963591 0.100113034 -0.26663113
-0.0077975346 0.019091034 0.1037496 0.31723848 0.17378844 -0.27496487 0.058277726 -0.13614053
0.0091614425 -0.04868427 0.20863883 -0.09598337 0.024087675 0.040415633 0.03294974 -0.10248229
0.1831614 -0.004039008 0.04693699 -0.2036164 0.13448006 -0.059001293 -0.081395276 0.080250405
0.09883867 -0.17711328 -0.029431658 -0.041650485 0.21428041 -0.110118285 -0.10301071 -0.19720277
-0.22732034 0.02943732 0.23934388 -0.20378268 -0.018914238 0.14540093 0.06766999 -0.15136082
0.07919772 0.122776434 0.018455684 0.011508841 -0.086366735 -0.023783682 -0.044235792 0.0067439615
0.25706422 0.2348198 -0.06283423 0.00028723117 0.14414221 -0.019436868 0.16304532 0.112553604
-0.23823446 0.025822181 0.09436015 0.08374826 -0.08556377 -0.114846505 -0.11050085 -0.16835366
-0.14402376 0.15449747 0.10120672 0.15890123 -0.1974964 -0.010729969 -0.036178503 0.14846921
0.020063933 -0.0674617 0.058745634 -0.068704836 -0.17631994 0.16849242 -0.06507514 -0.066441745
-0.25487262 0.13441014 0.1519404 0.060369786 -0.2383277 -0.23789114 -0.29723942 0.19882776
0.046773966 0.17248504 0.14606456 0.14299777 0.06988112 -0.16754659 -0.17137444 -0.16110814
0.057948366 -0.086838536 0.0014643726 -0.06533815 -0.10114223 -0.14532815 -0.15078048 0.08443794
-0.19052635 0.0985497 -0.18284498 -0.108187884 -0.07981979 -0.10007165 -0.06113382 -0.34841082
00000000: ef05 533e ea99 3a3e 2941 953c 3ebe 7a3e
00000010: 34da 7fbd 876d b2bb c5b7 42be 7cfb 543e
00000020: 36b4 503e fd58 40be cafd 683e 6f27 f8bb
00000030: 21b3 4f3e 3a6a 213d b514 6c3d 898d af3c
00000040: 498b 953e 29b5 1d3d e533 10be 450e 5f3c
00000050: 256f c9bd 5ca9 8abd fe53 28bc 6a79 2a3e
00000060: 0a95 5cbe 5618 18be af89 ec3c 5ebd 33be
00000070: 93a7 513d 0cf4 4ebe fabb 5f3e ddc9 86bd
00000080: 882e 5c3e 33cc fabc fc46 0ebe 0558 b13d
00000090: 3988 243c 277c 4d3e cd9f dd3d 9c6e 89bd
000000a0: f1a9 ce3d 7e57 12bd 2cbb 363e 031a 543e
000000b0: 1341 f43c 66ee 79bd d68f 423d 97ef 2c3e
000000c0: 6622 5abd e6e6 e9be f61e 6bbe 45d5 aabc
000000d0: f819 0cbe eaa6 8b3e e0f5 893d abcc b0bd
000000e0: 0f82 a43c 0640 c3bc 33cd 693e f992 abbd
000000f0: 3cd1 d03c a927 f6bd 0339 92bc a2bf 19bd
00000100: 1196 b03d aae9 eabd c37e 8c3e 073c c0bd
00000110: 425c a9bd a4b0 55be 8c46 8d3e 85b6 cd3c
00000120: e5e5 863e 7c7f 2abe feb0 8abe 3f02 22be
00000130: 022e b9bd 1f99 063e 3978 df3d cd9b 023e
00000140: 8a8b bbbd 4edb 23be 7329 4e3e 87c7 e03d
00000150: 3b91 ad3d f4d1 0c3d c2a5 c7bd 5c06 cbbe
00000160: 5b85 c8bd 6128 9e3d ec8f 903d 59ed 3bbd
00000170: 7c73 0d3d b086 983d 6ac3 30be f2d0 1ebd
00000180: 07ab 443e a6e2 2cbe c9e4 59bb 3655 dcbd
00000190: 53c6 e9bd eb8b 4d3d fc5d 76bd 573d 43be
000001a0: ee71 cebc 6dbe 60bd c39a 9abe 7d7f 9cbc
000001b0: 3e64 3bbe 697f 8ebe 0b5b 873e f12e 253e
000001c0: 976c 2f3e bad1 86be 0209 95be 4a0d 5bbd
000001d0: b30b b33c 49d1 29be dea7 28be f546 3abe
000001e0: e14c 8e3c 804d dabc 49f2 f33d 4bff 9cbd
000001f0: fc63 97bd 2d2e 9cbc 2ba6 83bd f861 7fbd
00000200: c240 d43d 763c c13d cb8c 6c3e a84f d73d
00000210: 42bd 09be 853c 8b3e 17ab 863c 772e fcbc
00000220: 163e 1cbe fc09 72be 1ce2 a23d b3b0 f9bd
00000230: 46eb 973d ad25 6bbe 1008 cd3d e083 88be
00000240: 7682 ffbb cd64 9c3c ac7a d43d 156d a23e
00000250: 99f5 313e 32c8 8cbe a0b4 6e3d 6c68 0bbe
00000260: e019 163c 2869 47bd 6ba5 553e ee92 c4bd
00000270: 8453 c53c dd8a 253d 4ef6 063d 3ce2 d1bd
00000280: a98e 3b3e a859 84bb 0041 403d d180 50be
00000290: 24b5 093e 57ab 71bd 91b2 a6bd 535a a43d
000002a0: ee6b ca3d 2f5d 35be a91a f1bc b399 2abd
000002b0: 536c 5b3e b285 e1bd 47f7 d2bd 86ef 49be
000002c0: aac6 68be 8926 f13c 9016 753e 68ac 50be
000002d0: 08f2 9abc fbe3 143e 9096 8a3d 55fe 1abe
000002e0: 6a32 a23d 3672 fb3d 6030 973c 948f 3c3c
000002f0: 0be1 b0bd ffd5 c2bc 9730 35bd 73fc dc3b
00000300: ec9d 833e 9a74 703e 3caf 80bd 8497 9639
00000310: 049a 133e 113a 9fbc 5af5 263e 8182 e63d
00000320: bcf3 73be 0a89 d33c e53f c13d 3584 ab3d
00000330: 0f3c afbd a534 ebbd 454e e2bd e764 2cbe
00000340: f77a 13be 9634 1e3e 7845 cf3d 01b7 223e
00000350: 7f3c 4abe c0cc 2fbc e92f 14bd 5008 183e
00000360: 1e5d a43c 5c29 8abd 439f 703d 1fb5 8cbd
00000370: 378d 34be 4789 2c3e 1d46 85bd 9c12 88bd
00000380: aa7e 82be d0a2 093e 4496 1b3e 4f46 773d
00000390: 2d0c 74be bc99 73be c42f 98be 8199 4b3e
000003a0: 0f96 3f3d eb9f 303e f391 153e 026e 123e
000003b0: d51d 8f3d 5591 2bbe c87c 2fbe 88f9 24be
000003c0: 445b 6d3d 67d8 b1bd 31f0 bf3a 02d0 85bd
000003d0: a823 cfbd e7d0 14be 3366 1abe cced ac3d
000003e0: 5719 43be 6dd4 c93d b73b 3bbe 9c91 ddbd
000003f0: 8f78 a3bd 5ef2 ccbd 7567 7abd e762 b2be

bias f4 [160]
0.027852273 0.28858602 0.18846872 0.11471595 -0.040445164 0.17079006 0.1345376 0.31644237
0.24031843 0.32863638 0.15443437 0.3416254 0.1644463 0.5423547 0.22379938 -0.104586326
0.39181763 -0.053757608 -0.10187617 0.14265835 0.1534739 0.11641245 0.29404 0.04973661
0.086724184 0.088291496 -0.071921565 0.07633353 0.3752479 0.07646294 -0.046571516 0.10992727
0.47732294 0.0014959674 0.41449657 0.04222509 0.43524435 0.45997187 0.30575103 0.017366836
0.030539108 -0.01767075 0.40802512 0.24965024 0.19537473 0.69431144 0.24732728 0.0728019
-0.007483812 0.14873153 0.2579614 0.14483431 0.36243066 -0.008633583 0.025059273 0.25369957
0.32346502 0.40050963 0.13303615 -0.047274586 0.121133655 -0.077667564 -0.03426417 0.06795022
-0.06667853 0.33862817 0.018411197 0.44540292 0.28872988 0.09472837 0.12532945 0.12211694
0.44168165 0.30487317 0.15856403 0.0010751355 0.3870783 0.23802102 0.28606942 0.29809615
0.10769498 0.048215333 0.30870214 0.23639145 -0.05500467 0.1045578 -0.0752383 0.00081306486
0.2642581 0.0067524253 -0.06162259 0.079491295 0.2473729 0.048430167 0.017808856 -0.057777762
0.14922665 -0.036931884 0.1655672 0.09362441 -0.03918519 0.09978824 -0.006897192 -0.0062721474
0.09875408 -0.23514372 0.031706315 0.26425654 0.08181295 0.20463337 0.14142047 0.19729756
-0.027441747 -0.12240215 -0.10265557 0.19873348 0.15256993 -0.10361407 0.06388585 -0.04619238
0.3118634 0.0074162716 0.13913693 0.15267187 0.0025116284 0.25618744 0.096887134 0.09744715
-0.07768255 0.18867524 0.4355226 0.26127473 0.16516475 -0.06496324 0.4724473 0.20372348
0.35449034 -0.050686542 0.0008877731 -0.07062928 0.3350699 0.25982708 -0.15822123 0.13367426
0.041826524 0.08622518 0.10190618 0.038137067 -0.028599985 -0.17297897 0.17906931 -0.09953694
0.23111297 0.4589787 0.3365682 0.2441869 0.33600083 0.37454212 0.18412921 0.23308147
00000000: 732a e43c 8cc1 933e f2fd 403e 32f0 ea3d
00000010: d4a9 25bd 97e3 2e3e 3ac4 093e bc04 a23e
00000020: 0916 763e 0743 a83e 0b24 1e3e 86e9 ae3e
00000030: 9c64 283e c2d7 0a3f aa2b 653e 5b31 d6bd
00000040: 529c c83e f030 5cbd 74a4 d0bd 0815 123e
00000050: 4328 1d3e a769 ee3d 698c 963e 9eb8 4b3d
00000060: 739c b13d 2cd2 b43d 9d4b 93bd c154 9c3d
00000070: 7e20 c03e 9a98 9c3d c6c1 3ebd 8c21 e13d
00000080: ac63 f43e 5614 c43a e538 d43e 37f4 2c3d
00000090: 59d8 de3e 6f81 eb3e 668b 9c3e e544 8e3c
000000a0: 272d fa3c 40c2 90bc abe8 d03e 50a4 7f3e
000000b0: 5010 483e 65be 313f 5d43 7d3e 2a19 953d
000000c0: c43a f5bb 144d 183e 8413 843e 724f 143e
000000d0: 8390 b93e df73 0dbc 1b49 cd3c e9e4 813e
000000e0: 359d a53e 990f cd3e a13a 083e ffa2 41bd
000000f0: ec14 f83d 2c10 9fbd 9658 0cbd 7c29 8b3d
00000100: c18e 88bd ac60 ad3e 14d3 963c da0b e43e
00000110: 67d4 933e f300 c23d 5d56 003e 7218 fa3d
00000120: 1924 e23e 5618 9c3e 9c5e 223e 90eb 8c3a
00000130: 202f c63e c8bb 733e b177 923e 0fa0 983e
00000140: 308f dc3d 717d 453d 350e 9e3e 9a10 723e
00000150: 944c 61bd 6622 d63d 8a16 9abd dc23 553a
00000160: d64c 873e 7343 dd3b f867 7cbd 55cc a23d
00000170: 524f 7d3e b65e 463d e1e3 913c 60a8 6cbd
00000180: dfce 183e e345 17bd 738a 293e 28be bf3d
00000190: a680 20bd c75d cc3d d701 e2bb 9686 cdbb
000001a0: 943f ca3d 84c9 70be 7bde 013d a24c 873e
000001b0: 8c8d a73d 698b 513e 87d0 103e 5f08 4a3e
000001c0: 84cd e0bc faad fabd 153d d2bd ca80 4b3e
000001d0: 4b3b 1c3e 9d33 d4bd 96d6 823d 3934 3dbd
000001e0: 8fac 9f3e 3204 f33b e979 0e3e 0456 1c3e
000001f0: 229a 243b 002b 833e c36c c63d 5f92 c73d
00000200: 0718 9fbd 1534 413e d1fc de3e cdc5 853e
00000210: f320 293e 720b 85bd 9de4 f13e e39c 503e
00000220: c27f b53e b19c 4fbd 72b9 683a 15a6 90bd
00000230: 488e ab3e 0e08 853e bf04 22be e8e1 083e
00000240: 4a52 2b3d d496 b03d 30b4 d03d 9d35 1c3d
00000250: 844a eabc 6621 31be f25d 373e 06da cbbd
00000260: e1a8 6c3e 42ff ea3e ab52 ac3e 210c 7a3e
00000270: 4d08 ac3e fcc3 bf3e 5e8c 3c3e e9ac 6e3e

weight f4 [160]
0.8908589 0.904743 0.9026577 1.737088 0.86618376 0.89770526 0.8979583 0.9547694
0.9389808 0.8656319 0.9012766 1.0056496 1.0423969 0.8930407 0.9624733 0.8469142
0.93208003 0.852123 0.92239374 0.8896954 0.86831045 0.9116872 0.9763576 0.8538055
0.87203425 0.8453621 1.1624013 0.9441662 0.9814627 0.9222118 0.9648085 0.9144262
0.9241521 0.928301 0.8724845 0.9283004 0.8443169 0.9179358 0.9465831 0.85378647
0.8641826 0.87822306 0.95056146 0.94267535 0.8791031 0.9668153 0.9402423 0.8822373
0.99469995 0.88974905 1.0312452 0.8453086 0.9562818 0.82963705 1.077156 0.9164924
0.9668522 0.9356952 0.94638336 0.9004387 0.84711534 0.8757862 0.8688309 0.8319096
0.81424916 0.90864426 0.88205326 0.9178845 0.95367086 0.9550022 0.9087244 0.98237115
0.9707059 0.8856886 0.8552621 0.9164951 0.9253217 0.8127783 0.8394964 0.97300375
0.840514 0.9173254 0.9291189 0.9686769 0.8264882 0.88175386 0.8370949 0.83691525
0.9086648 0.8949255 0.93213683 1.1639425 0.86834675 0.82333237 0.99168503 0.915881
0.90508 0.9366929 0.8724058 0.89132535 0.91651857 0.87041074 1.5229281 0.88643783
0.91322297 1.1802309 1.8308301 0.8870965 1.0084573 0.81809705 0.8694628 0.9435402
0.87885696 0.91741824 0.9056262 0.898916 0.876888 0.79830074 1.0981878 0.8732661
0.8994188 0.8807184 0.9124619 0.9060989 0.84316194 0.89960855 0.94295675 0.894278
0.84244287 0.91971797 0.9268655 0.9675557 0.8938104 0.89553225 0.91554695 0.8372581
0.9795085 0.83894795 0.9267038 0.84447473 0.8909502 0.8528488 0.8794711 0.9478791
0.8581952 0.93513435 0.9950517 0.8977488 0.86916554 0.996624 0.847691 0.86380726
0.91906387 0.9247264 0.90514576 0.9781645 0.8295867 0.8410492 0.8961974 0.8850296
00000000: 540f 643f 3d9d 673f 9314 673f e658 de3f
00000010: 38be 5d3f 03d0 653f 98e0 653f c46b 743f
00000020: 0c61 703f 0d9a 5d3f 10ba 663f 20b9 803f
00000030: 436d 853f 519e 643f a664 763f 5ecf 583f
00000040: cc9c 6e3f bc24 5a3f ff21 6c3f 14c3 633f
00000050: 9849 5e3f 5564 693f 92f2 793f ff92 5a3f
00000060: a33d 5f3f a769 583f 91c9 943f e0b4 713f
00000070: 2441 7b3f 1316 6c3f b1fd 763f d617 6a3f
00000080: 3b95 6c3f 22a5 6d3f 255b 5f3f 18a5 6d3f
00000090: 2725 583f d7fd 6a3f 4553 723f c091 5a3f
000000a0: 123b 5d3f 3ad3 603f ff57 733f 2c53 713f
000000b0: e70c 613f 3581 773f b8b3 703f 4eda 613f
000000c0: a8a4 7e3f 98c6 633f d8ff 833f 2566 583f
000000d0: e2ce 743f 1863 543f 3fe0 893f 3f9f 6a3f
000000e0: a083 773f b889 6f3f 2e46 723f 2783 663f
000000f0: 8ddc 583f 8633 603f b46b 5e3f 07f8 543f
00000100: a272 503f e99c 683f 3ece 613f 7bfa 6a3f
00000110: c623 743f 067b 743f 2aa2 683f ad7c 7b3f
00000120: 2f80 783f 7dbc 623f 75f2 5a3f 6c9f 6a3f
00000130: e2e1 6c3f 3d12 503f 3ce9 563f c616 793f
00000140: ed2b 573f d6d5 6a3f bcda 6d3f 36fb 773f
00000150: bb94 533f 9fba 613f da4b 563f 1440 563f
00000160: 429e 683f d619 653f 85a0 6e3f 11fc 943f
00000170: f94b 5e3f e9c5 523f 12df 7d3f 2d77 6a3f
00000180: 53b3 673f 1bcb 6f3f fd55 5f3f e62d 643f
00000190: f6a0 6a3f 3dd3 5e3f 4fef c23f 97ed 623f
000001a0: fbc8 693f ce11 973f a458 ea3f c218 633f
000001b0: 2115 813f cf6e 513f 1d95 5e3f da8b 713f
000001c0: c5fc 603f ecdb 6a3f 1ed7 673f 5c1f 663f
000001d0: bb7b 603f 705d 4c3f 6b91 8c3f 5e8e 5f3f
000001e0: 4f40 663f c376 613f 1a97 693f 19f6 673f
000001f0: 76d9 573f bf4c 663f 9d65 713f 67ef 643f
00000200: 56aa 573f a372 6b3f 0f47 6d3f bbb1 773f
00000210: c2d0 643f 9a41 653f 4961 6a3f 8c56 563f
00000220: 12c1 7a3f 4bc5 563f 763c 6d3f 7f2f 583f
00000230: 5015 643f 4d54 5a3f 0525 613f 34a8 723f
00000240: aeb2 5b3f f764 6f3f b5bb 7e3f ded2 653f
00000250: a281 5e3f c022 7f3f 4702 593f 7922 5d3f
00000260: c547 6b3f dfba 6c3f a2b7 673f fd68 7a3f
00000270: cb5f 543f 004f 573f 316d 653f 4d91 623f

bias f4 [160]
-0.2888072 -0.0946628 -0.27335003 0.23353863 0.0112350155 0.16230522 0.018209405 0.23114158
0.40776438 -0.27971733 -0.16911712 -0.010087012 -0.12761949 -0.5754712 -0.088515505 -0.0018407219
0.0016464858 0.1926526 0.26359528 0.37932953 0.37400812 0.15100372 0.13283746 0.0041544256
-0.17442784 0.004104694 -0.09987365 -0.31394687 -0.10283808 0.010213506 -0.24962793 0.04696627
0.0035643848 0.16404785 0.061861973 0.16996656 0.24621545 0.26213726 0.15067707 -0.37639472
-0.17206803 0.22186546 0.12572825 0.0040909196 -0.07217595 0.33713412 -0.24790326 0.03386802
-0.12318071 0.19168259 0.049674083 -0.38910964 0.035637718 0.09347592 -0.010216011 0.18762292
0.1346968 -0.04691376 0.09274503 -0.09642538 0.096548006 0.16172236 0.15645666 0.33119693
0.26813307 0.58861303 -0.059976056 0.22200643 0.12767963 0.17431484 -0.020852631 0.077911645
-0.0756478 0.21074413 -0.5664521 0.27372006 -0.009422166 -0.037259333 0.07374254 0.23810568
0.5604044 -0.09473647 -0.12695007 -0.098508514 0.2508416 -0.3931718 0.17631839 -0.40110752
0.14681335 0.048761543 0.09478525 0.2998172 0.24872848 -0.073533714 0.44198662 -0.15128405
0.26324826 -0.007776969 0.37658748 0.1538463 0.046472393 0.0024218718 0.26749977 0.17368528
-0.2623245 0.363715 0.38412395 0.113396645 -0.16852029 -0.33660856 -0.012928604 -0.10191105
-0.36872354 0.17154814 0.09520757 0.30336943 0.09930851 0.1333313 0.13866119 0.15074
0.54068786 -0.12555373 0.07299632 -0.32869464 0.15240066 -0.6256994 -0.013383567 0.63383144
0.13295911 0.06592971 -0.22125064 -0.15577833 -0.1638318 0.116321035 -0.20167236 0.078669004
-0.36264607 -0.016544348 -0.13781846 0.025461446 -0.63597 -0.44373828 0.30885214 0.34295693
0.2826587 0.39452004 0.28551438 0.070738554 -0.34475374 -0.1130757 0.048534296 0.20236506
-0.11613105 0.23960486 -0.16748919 0.28644627 -0.42433932 0.27052045 -0.01220982 0.2706762
00000000: 8ade 93be 92de c1bd 89f4 8bbe c024 6f3e
00000010: 1213 383c 5733 263e e42b 953c 61b0 6c3e
00000020: 7ec6 d03e 1c37 8fbe 0a2d 2dbe ff43 25bc
00000030: afae 02be 1552 13bf 9e47 b5bd 6144 f1ba
00000040: e5ce d73a b946 453e f6f5 863e 7b37 c23e
00000050: fe7d bf3e b8a0 1a3e 8b06 083e d921 883b
00000060: 369d 32be ab80 863b 8e8a ccbd a5bd a0be
00000070: c59c d2bd 8d56 273c 779e 7fbe b45f 403d
00000080: 7498 693b 29fc 273e fb62 7d3d b70b 2e3e
00000090: e71f 7c3e db36 863e 174b 1a3e cfb6 c0be
000000a0: 9a32 30be b330 633e e8be 003e 1f0d 863b
000000b0: fcd0 93bd d89c ac3e 5ada 7dbe 31b9 0a3d
000000c0: 2b46 fcbd 7148 443e 0d77 4b3d 6139 c7be
000000d0: dbf8 113d 4e70 bf3d 0e61 27bc 3920 403e
000000e0: f5ed 093e a528 40bd 1bf1 bd3d ab7a c5bd
000000f0: f6ba c53d 8c9a 253e 2d36 203e a592 a93e
00000100: bd48 893e 58af 163f 74a9 75bd a755 633e
00000110: 73be 023e 977f 323e 23d3 aabc 2490 9f3d
00000120: 3ced 9abd 4fcd 573e 0103 11bf 0925 8c3e
00000130: 6e5f 1abc 3e9d 18bd 5406 973d fad1 733e
00000140: aa76 0f3f 3205 c2bd 33ff 01be d5be c9bd
00000150: 4f6e 803e d04d c9be cf8c 343e f75d cdbe
00000160: 3d56 163e 2fba 473d c51e c23d a481 993e
00000170: aeb2 7e3e d898 96bd 124c e23e 35ea 1abe
00000180: 7ac8 863e f2d5 febb 13d0 c03e e289 1d3e
00000190: d659 3e3d 44b8 1e3b bbf5 883e 8eda 313e
000001a0: 664f 86be da38 ba3e e5ab c43e 803c e83d
000001b0: 9590 2cbe f557 acbe 7fd2 53bc beb6 d0bd
000001c0: 55c9 bcbe 51aa 2f3e 30fc c23d 3d53 9b3e
000001d0: 4362 cb3d 0088 083e 33fd 0d3e 965b 1a3e
000001e0: 856a 0a3f 2891 00be 187f 953d aa4a a8be
000001f0: eb0e 1c3e d62d 20bf c046 5bbc c742 223f
00000200: 6f26 083e 2806 873d 878f 62be 5b84 1fbe
00000210: 86c3 27be b939 ee3d 3383 4ebe 371d a13d
00000220: bfac b9be 0388 87bc 4820 0dbe 8694 d03c
00000230: eece 22bf aa31 e3be de21 9e3e 0d98 af3e
00000240: a4b8 903e 88fe c93e f12e 923e 60df 903d
00000250: 9083 b0be 3c94 e7bd e6cb 463d c938 4f3e
00000260: 1ed6 edbd fa5a 753e 4982 2bbe 16a9 923e
00000270: 0143 d9be a881 8a3e b20b 48bc 1296 8a3e

running_mean f4 [160]
0.26089618 0.4439815 0.30961692 0.31911308 0.26101658 0.31743905 0.34167373 0.41662365
0.4371437 0.41881856 0.30252755 0.4081244 0.30666986 0.57467794 0.42459276 0.20167722
0.48589286 0.27108774 0.2033508 0.32660598 0.42936808 0.32270756 0.40546936 0.278399
0.27033532 0.27077252 0.19324397 0.36059794 0.45348448 0.3150197 0.19447288 0.26759326
0.528489 0.21616407 0.47697154 0.44141504 0.48671165 0.51003665 0.4194368 0.2600999
0.27579674 0.2195819 0.49261042 0.5206469 0.3392327 0.7172692 0.41771227 0.30018926
0.18572281 0.3625754 0.36379054 0.31227073 0.44324306 0.27854717 0.21908496 0.3496095
0.4885969 0.45827562 0.27719754 0.21208069 0.26156467 0.20588708 0.19030717 0.309023
0.15289028 0.445898 0.28448012 0.48867875 0.49912527 0.29515642 0.43586317 0.38007239
0.5411516 0.39591566 0.31808072 0.28325394 0.45819554 0.3130793 0.36307564 0.40389806
0.3459893 0.26562637 0.4113705 0.39948443 0.16369997 0.35769486 0.25820413 0.23831408
0.32440534 0.27844977 0.29629844 0.3063512 0.334082 0.27608535 0.2514765 0.20475014
0.28599858 0.19041055 0.25659826 0.26410902 0.27197492 0.2715319 0.24943353 0.24422315
0.30360526 0.15253039 0.30700284 0.40899417 0.22480811 0.38797313 0.3358854 0.37569362
0.2187927 0.18143557 0.18866146 0.3550592 0.3774079 0.15514778 0.263629 0.29210642
0.422629 0.28187603 0.2776294 0.3124743 0.21931522 0.4147095 0.28273135 0.29133502
0.1557064 0.32618275 0.4808766 0.3523174 0.34193012 0.20300952 0.5553638 0.36104566
0.4558886 0.21932644 0.21073395 0.26924026 0.41902044 0.42192328 0.22096743 0.31150845
0.24999148 0.36113816 0.26417825 0.26037276 0.24139331 0.18797357 0.3060424 0.20666397
0.370148 0.5550448 0.44746 0.33409443 0.42484546 0.45978242 0.3673217 0.3588426
00000000: 2f94 853e 8b51 e33e 1c86 9e3e ca62 a33e
00000010: f7a3 853e 5f87 a23e dcef ae3e b24f d53e
00000020: 4dd1 df3e 636f d63e e4e4 9a3e aef5 d03e
00000030: d503 9d3e 181e 133f 3964 d93e 7984 4e3e
00000040: f3c6 f83e 03cc 8a3e 313b 503e e638 a73e
00000050: 22d6 db3e ed39 a53e ae99 cf3e 508a 8e3e
00000060: 6469 8a3e b2a2 8a3e bfe1 453e 4ba0 b83e
00000070: 1e2f e83e 434a a13e e623 473e fc01 893e
00000080: 0e4b 073f 1d5a 5d3e 9d35 f43e 2701 e23e
00000090: 4532 f93e c391 023f 6cc0 d63e d02b 853e
000000a0: 3b35 8d3e 14da 603e 6f37 fc3e 1e49 053f
000000b0: e9af ad3e f49e 373f 62de d53e 68b2 993e
000000c0: 1f2e 3e3e 7ca3 b93e c142 ba3e f3e1 9f3e
000000d0: c1f0 e23e bc9d 8e3e cf57 603e 0400 b33e
000000e0: 5f29 fa3e 1aa3 ea3e d6ec 8d3e ae2b 593e
000000f0: ceeb 853e 10d4 523e e2df 423e 4338 9e3e
00000100: 458f 1c3e be4c e43e 61a7 913e 1a34 fa3e
00000110: 598d ff3e be1e 973e 7529 df3e d998 c23e
00000120: e988 0a3f 75b5 ca3e 7adb a23e a906 913e
00000130: 9b98 ea3e ee4b a03e 0de5 b93e bacb ce3e
00000140: 8225 b13e 2e00 883e 279f d23e 3989 cc3e
00000150: f7a0 273e c823 b73e 5533 843e 9b08 743e
00000160: 7518 a63e f890 8e3e 6eb4 973e 11da 9c3e
00000170: cc0c ab3e 0f5b 8d3e 87c1 803e 05aa 513e
00000180: 686e 923e fcfa 423e d960 833e 4c39 873e
00000190: 4c40 8b3e 3b06 8b3e 816b 7f3e a215 7a3e
000001a0: 2672 9b3e ed30 1c3e 7a2f 9d3e af67 d13e
000001b0: 1934 663e 6aa4 c63e 2cf9 ab3e ea5a c03e
000001c0: 320b 603e 3fca 393e 7830 413e 52ca b53e
000001d0: 9c3b c13e 0fdf 1e3e 61fa 863e f98e 953e
000001e0: d462 d83e 0e52 903e 7125 8e3e a2fc 9f3e
000001f0: 2b94 603e ce54 d43e 2ac2 903e dd29 953e
00000200: 8071 1f3e 6d01 a73e 7535 f63e f262 b43e
00000210: 7711 af3e bae1 4f3e 522c 0e3f fada b83e
00000220: 3b6a e93e 1c97 603e a4ca 573e dcd9 893e
00000230: d989 d63e 5406 d83e 4945 623e 097e 9f3e
00000240: c4fd 7f3e 1ae7 b83e 5f42 873e 944f 853e
00000250: cf2f 773e 257c 403e 97b1 9c3e b89f 533e
00000260: 0a84 bd3e 6a17 0e3f 7a19 e53e 6d0e ab3e
00000270: 5885 d93e 9a68 eb3e 9711 bc3e 38ba b73e

running_var f4 [160]
0.14251962 0.25786993 0.12637034 0.17113565 0.15801114 0.14428797 0.18458705 0.18792808
0.26934355 0.17621803 0.13896014 0.14087556 0.1382564 0.18286063 0.27203855 0.11295868
0.22271203 0.16933116 0.10916801 0.16666208 0.3107457 0.18632048 0.18873963 0.14684801
0.13319783 0.13024676 0.09512427 0.2437577 0.17768288 0.18641593 0.09200165 0.11992676
0.2192277 0.095098846 0.18311258 0.4001112 0.17981271 0.18979877 0.19811216 0.13592918
0.15371618 0.10776711 0.21992391 0.41124272 0.154859 0.20685957 0.2234269 0.16340461
0.0755953 0.21109125 0.15938625 0.14900592 0.17479189 0.16568176 0.098930456 0.12669557
0.28819346 0.15910672 0.12000148 0.110395126 0.09916768 0.106504954 0.08381567 0.17771782
0.06251487 0.21261378 0.16244711 0.14856008 0.32898238 0.14679259 0.3355019 0.25980976
0.26874718 0.17000909 0.14753592 0.16818665 0.18329708 0.10470221 0.14230612 0.18388997
0.21141417 0.13180318 0.17073087 0.22058977 0.06643057 0.22909564 0.16583626 0.12037937
0.099478245 0.16161594 0.21409142 0.17038809 0.115431614 0.14625202 0.12572178 0.101739205
0.115534 0.084407836 0.08350049 0.12057814 0.16454278 0.12254582 0.13561086 0.13318609
0.15716209 0.08209479 0.1899292 0.20494315 0.084913544 0.21121386 0.17590755 0.21277507
0.11250448 0.08955437 0.093367115 0.1762488 0.23006742 0.06770104 0.12586832 0.20055903
0.18831801 0.16314779 0.11471351 0.14367001 0.10106079 0.23128314 0.13143115 0.14857912
0.06452489 0.14232306 0.16523793 0.13163346 0.17559703 0.101595394 0.2681394 0.17461312
0.20364824 0.1135963 0.09557192 0.18228497 0.17140548 0.2388265 0.13786939 0.15186605
0.11982479 0.2317802 0.114453465 0.13356431 0.13289519 0.1092116 0.13021618 0.11295321
0.17999457 0.2765054 0.21235435 0.12438176 0.18136549 0.19677435 0.20181462 0.1621125
00000000: aaf0 113e 8707 843e 3a67 013e 2f3e 2f3e
00000010: accd 213e 3ac0 133e 6304 3d3e 3870 403e
00000020: 66e7 893e 8072 343e 914b 0e3e af41 103e
00000030: 1693 0d3e d13f 3b3e a348 8b3e e156 e73d
00000040: 9f0e 643e 2665 2d3e 7a93 df3d 77a9 2a3e
00000050: 0f1a 9f3e ccca 3e3e f644 413e 535f 163e
00000060: 0365 083e 685f 053e 83d0 c23d 9e9b 793e
00000070: 80f2 353e d1e3 3e3e 5c6b bc3d 299c f53d
00000080: 3a7d 603e 2fc3 c23d dd81 3b3e 60db cc3e
00000090: d320 383e 9c5a 423e eadd 4a3e 0531 0b3e
000000a0: c667 1d3e 01b5 dc3d bc33 613e 688e d23e
000000b0: 5c93 1e3e ffd2 533e 05ca 643e 8a53 273e
000000c0: b5d1 9a3d 4e28 583e 2636 233e 0295 183e
000000d0: a5fc 323e 7ba8 293e 0d9c ca3d 7cbc 013e
000000e0: 188e 933e dfec 223e 56c3 f53d d716 e23d
000000f0: 6d18 cb3d 451f da3d 8da7 ab3d a9fb 353e
00000100: cc07 803d 6db7 593e 8958 263e 2220 183e
00000110: 6170 a83e cc50 163e e8c6 ab3e c905 853e
00000120: 3b99 893e dd16 2e3e a813 173e 1f39 2c3e
00000130: 3bb2 3b3e 1d6e d63d b2b8 113e a74d 3c3e
00000140: f57c 583e 6af7 063e 13d4 2e3e 49e2 613e
00000150: c00c 883d 0c98 6a3e fbd0 293e 7689 f63d
00000160: 40bb cb3d a67e 253e c83a 5b3e 377a 2e3e
00000170: 6967 ec3d 17c3 153e 36bd 003e a55c d03d
00000180: 179d ec3d 04de ac3d 4e02 ab3d acf1 f63d
00000190: e77d 283e 4ef9 fa3d 93dd 0a3e ef61 083e
000001a0: 19ef 203e 5021 a83d cd7c 423e 9edc 513e
000001b0: 27e7 ad3d 7248 583e 1c21 343e b5e1 593e
000001c0: c068 e63d 4868 b73d 4237 bf3d 917a 343e
000001d0: cb96 6b3e d8a6 8a3d a0e3 003e 595f 4d3e
000001e0: 70d6 403e 3710 273e ebee ea3d 3b1e 133e
000001f0: f6f8 ce3d 7dd5 6c3e e395 063e 2025 183e
00000200: a025 843d 23bd 113e 2234 293e ecca 063e
00000210: b5cf 333e 3f11 d03d 9149 893e c8cd 323e
00000220: 2a89 503e 2da5 e83d 36bb c33d e9a8 3a3e
00000230: eb84 2f3e ef8e 743e a22d 0d3e c682 1b3e
00000240: b366 f53d ca57 6d3e 9466 ea3d 15c5 083e
00000250: ad15 083e 55aa df3d 6457 053e 0354 e73d
00000260: 7f50 383e 1e92 8d3e 6b73 593e ddbb fe3d
00000270: e0b7 393e 377f 493e 7ea8 4e3e d200 263e

weight f4 [80, 160]
0.08360889 0.054617252 0.053311866 -0.008517307 -0.019005032 -0.0015978103 -0.03040657 -0.018059067
-0.00428173 0.00035163356 0.064313635 0.017863652 0.013371624 -0.02606838 0.03793168 -0.04014069
0.07601459 0.10640693 0.041241895 0.057395097 0.051852018 0.0037290275 -0.032034907 -0.021303795
0.07977076 0.0019088312 -0.053642113 0.15167306 -0.030502904 0.087208584 0.065131724 0.023629013
0.025061162 0.07020243 0.027958747 -0.06460997 0.05897326 0.008036806 0.059159487 -0.036843203
-0.012291751 0.036826346 0.038266953 0.07036983 -0.00062245503 -0.053804863 -0.037102636 0.0036122575
-0.07582596 0.01203884 -0.022479527 -0.006744771 -0.07804119 -0.0037767692 0.015255879 0.019638848
0.028921727 0.020848986 -0.047633555 -0.00084277056 -0.019142974 -0.04404734 0.003123667 0.0022911807
0.00040038332 0.10574038 -0.043990016 0.03597138 -0.036101222 -0.03529719 -0.029373314 0.1789066
0.021678125 0.03756845 0.024090957 -0.0002479537 0.04121634 0.08742984 0.033571806 0.0059033684
0.051955897 0.012305517 -0.01242547 -0.04520332 -0.012113469 -0.05551804 0.019478388 -0.030920142
0.03628891 0.08427324 -0.037027504 -0.017810412 -0.009619589 0.010061755 0.0036650565 -0.043137986
0.044970457 -0.04214767 -0.017648282 0.060498215 0.0052724155 -0.032245573 -0.0027964825 -0.00078786234
-0.061655384 0.008847889 0.0466157 -0.0077706086 0.08968424 -0.043817252 0.03314218 -0.00071464287
-0.019456368 0.027881712 -0.055798236 0.04988071 0.0053834957 0.0017069719 -0.04525288 0.0023830284
0.09619507 -0.017623577 0.08903995 0.028539294 0.09540771 0.00483749 0.06859045 0.059837766
0.012001047 0.01506859 0.04335595 0.013197055 -0.05547774 -0.04783269 0.10027468 0.00859929
0.04136055 -0.031056115 -0.06674774 0.048244275 -0.015930293 -0.023239424 0.03972019 0.007507534
0.019725434 0.07765102 0.11906572 0.055267308 0.008400998 -0.05251774 -0.010072097 0.07671811
0.06197567 0.078173615 -0.044820998 0.018222667 0.017146245 0.088910885 0.08870104 0.13470525
-0.015443176 -0.046913046 -0.035444736 -0.06746799 -0.06261368 0.04274617 0.0043303417 -0.06562776
0.00095914665 -0.036196824 -0.03294084 -0.027720105 -0.0021008356 -0.015499041 0.010143894 -0.033782944
0.050809015 0.037443608 0.060422536 0.032013737 0.005688935 0.010031143 -0.021915888 -0.00094086374
0.006847306 0.013247803 -0.055751286 0.027843406 0.059270356 0.014550739 0.02128633 0.032711126
0.0022059553 0.01796601 -0.07416901 0.04114172 -0.07271216 0.05860107 0.09030726 0.07345322
-0.007329387 0.011037996 0.06673438 0.084660836 -0.062294923 -0.0047579957 -0.0045404625 0.050128654
0.025393408 0.05009471 0.003746687 -0.037815783 0.016733766 0.053215083 -0.03425504 0.0045793327
0.028939182 0.049721014 -0.048111368 -0.017198354 0.04156093 0.061787594 0.0079459585 0.0781798
0.018632084 0.021651227 0.024212351 0.050905917 0.122916624 0.13426429 0.036898945 -0.003583069
0.051107287 0.013081039 -0.07812209 -0.018235182 -0.04671542 -0.06902148 0.004589792 0.07109317
0.05007198 -0.02847427 0.009435284 -0.00082025403 -0.008045564 -0.04323489 -0.019752562 -0.05610734
0.024085175 -0.026173228 0.038270652 -0.038645007 0.011305421 0.038248517 0.019111898 0.020557227
00000000: 233b ab3d 57b6 5f3d 8b5d 5a3d 2d8c 0bbc
00000010: 71b0 9bbc 9e6d d1ba 3317 f9bc 9cf0 93bc
00000020: c14d 8cbb 755b b839 deb6 833d cb56 923c
00000030: a814 5b3c 5b8d d5bc 405e 1b3d 906a 24bd
00000040: 8aad 9b3d e0eb d93d 43ed 283d 1f17 6b3d
00000050: c862 543d b362 743b 0937 03bd 4c85 aebc
00000060: da5e a33d bf31 fa3a d5b7 5bbd 2f50 1b3e
00000070: 3ae1 f9bc 6a9a b23d c863 853d a291 c13c
00000080: 114d cd3c 4bc6 8f3d be09 e53c 3b52 84bd
00000090: f28d 713d cfac 033c 3851 723d e6e8 16bd
000000a0: 5763 49bc 39d7 163d cfbd 1c3d 0f1e 903d
000000b0: 402c 23ba 7d62 5cbd eff8 17bd a0bb 6c3b
000000c0: a44a 9bbd 8e3e 453c fc26 b8bc 3d03 ddbb
000000d0: 0fd4 9fbd ac83 77bb cbf3 793c a6e1 a03c
000000e0: 42ed ec3c 7ecb aa3c 671b 43bd 60ed 5cba
000000f0: bad1 9cbc fc6a 34bd 70b6 4c3b a227 163b
00000100: 8aea d139 6a8e d83d e02e 34bd ba56 133d
00000110: e0de 13bd c993 10bd 4ea0 f0bc 4b33 373e
00000120: 5396 b13c 60e1 193d 665a c53c c8ff 81b9
00000130: 77d2 283d 6a0e b33d 9782 093d 0b71 c13b
00000140: b5cf 543d 149d 493c 3394 4bbc 1e27 39bd
00000150: 9277 46bc e266 63bd 2491 9f3c 3d4c fdbc
00000160: aea3 143d 7397 ac3d 27aa 17bd 24e7 91bc
00000170: 7b9b 1dbc 0fda 243c 7231 703b 75b1 30bd
00000180: f132 383d 09a3 2cbd 2193 90bc facc 773d
00000190: 3ac4 ac3b ef13 04bd 3145 37bb 8c88 4eba
000001a0: 5b8a 7cbd bcf6 103c 1bf0 3e3d 97a0 febb
000001b0: 5fac b73d b879 33bd 18c0 073d df56 3bba
000001c0: f662 9fbc 3068 e43c b18c 64bd b74f 4c3d
000001d0: 0968 b03b 79bc df3a 155b 39bd 952c 1c3b
000001e0: ec01 c53d 525f 90bc 945a b63d 3dcb e93c
000001f0: 1e65 c33d cf83 9e3b 2679 8c3d 7218 753d
00000200: 0aa0 443c 3fe2 763c 0296 313d 7638 583c
00000210: a03c 63bd 36ec 43bd d05c cd3d 09e4 0c3c
00000220: ae69 293d 6569 febc 0ab3 88bd ca9b 453d
00000230: 3f80 82bc 9b60 bebc a3b1 223d c301 f63b
00000240: 3c97 a13c 7f07 9f3d bad8 f33d f95f 623d
00000250: 57a4 093c d71c 57bd 7005 25bc 621e 9d3d
00000260: 33da 7d3d 7d19 a03d 3996 37bd b447 953c
00000270: 4876 8c3c e916 b63d e4a8 b53d 2cf0 093e
00000280: 6005 7dbc e527 40bd 802e 11bd a82c 8abd
00000290: 9a3b 80bd 9c16 2f3d 8ae5 8d3b d967 86bd
000002a0: 3e6f 7b3a 1f43 14bd f9ec 06bd 4615 e3bc
000002b0: 2cae 09bb b1ef 7dbc 9332 263c fc5f 0abd
000002c0: 1d1d 503d 785e 193d 9f7d 773d d620 033d
000002d0: 3f6a ba3b aa59 243c f388 b3bc 4ca4 76ba
000002e0: 5e5f e03b 500d 593c 765b 64bd db17 e43c
000002f0: 79c5 723d 3966 6e3c ab60 ae3c 1afc 053d
00000300: ca91 103b 742d 933c ece5 97bd 3884 283d
00000310: 1dea 94bd ad07 703d 03f3 b83d a46e 963d
00000320: 5b2b f0bb b6d8 343c 09ac 883d a962 ad3d
00000330: f628 7fbd f6e8 9bbb 29c8 94bb b453 4d3d
00000340: d605 d03c 1c30 4d3d fa8a 753b b9e4 1abd
00000350: 4015 893c 0ff8 593d 034f 0cbd 3a0e 963b
00000360: dd11 ed3c 43a8 4b3d 6d10 45bd 90e3 8cbc
00000370: cb3b 2a3d fd14 7d3d c42f 023c bb1c a03d
00000380: 50a2 983c ea5d b13c fb58 c63c b982 503d
00000390: b6bb fb3d 947c 093e 5923 173d ecd1 6abb
000003a0: e055 513d db51 563c 79fe 9fbd f361 95bc
000003b0: ab58 3fbd 225b 8dbd f765 963b 4c99 913d
000003c0: 4718 4d3d df42 e9bc 7396 1a3c 5106 57ba
000003d0: 8bd1 03bc 1117 31bd 20d0 a1bc cfd0 65bd
000003e0: 464e c53c 3d69 d6bc b0c1 1c3d 3a4a 1ebd
000003f0: 5f3a 393c 7aaa 1c3d 8e90 9c3c a167 a83c

bias f4 [80]
0.16509125 0.23385997 0.26357794 -0.015500875 0.055101063 0.19050398 0.06961863 0.13581812
0.19290559 0.14055444 0.25210997 0.20907131 0.08563145 0.26778108 0.20258531 0.0710514
0.064189196 0.24414983 0.042497452 0.12140485 0.27200475 0.12958181 0.12018846 0.16577905
0.27160072 -0.27560642 -0.5243927 0.07721735 0.21094637 0.33959076 0.19654791 0.2568142
0.1112959 0.32707268 0.29094967 0.066775374 0.25729936 0.31375507 0.28939772 0.18256454
0.37491372 0.20210111 0.36224473 0.29244855 0.10779082 0.24006458 0.096705966 0.15960595
-0.22491442 0.010719252 0.053607322 0.13121802 0.16095132 0.04470724 0.078269035 -0.002769355
0.20853737 0.029308772 0.21322376 0.031244598 0.17050332 0.21120632 0.1184436 0.09655095
0.20155539 0.15974255 0.22877453 0.020916875 0.12719935 0.06609939 0.04245163 0.32095167
0.1962962 -0.025126686 0.09569014 0.14286758 0.34678125 0.38604844 0.047650743 0.2753917
00000000: ae0d 293e fd78 6f3e b0f3 863e 62f7 7dbc
00000010: a7b1 613d 7a13 433e 3694 8e3d e813 0b3e
00000020: 0b89 453e 81ed 0f3e 8f14 813e ca16 563e
00000030: 8b5f af3d 9a1a 893e 8672 4f3e 6583 913d
00000040: a075 833d 6a02 7a3e cf11 2e3d 1ba3 f83d
00000050: 3544 8b3e 18b1 043e 5e25 f63d fcc1 293e
00000060: 400f 8b3e 491c 8dbe 9a3e 06bf 2124 9e3d
00000070: 5302 583e d7de ad3e db43 493e 277d 833e
00000080: 1bef e33d 1276 a73e 5bf7 943e 87c1 883d
00000090: bebc 833e 81a4 a03e f02b 943e 33f2 3a3e
000000a0: b1f4 bf3e 98f3 4e3e 2478 b93e d1bb 953e
000000b0: 6fc1 dc3d 7dd3 753e c70d c63d be6f 233e
000000c0: f74f 66be cd9f 2f3c 5a93 5b3d 045e 063e
000000d0: 6cd0 243e f01e 373d 844b a03d 117e 35bb
000000e0: d28a 553e f318 f03c 5457 5a3e acf4 ff3c
000000f0: 6c98 2e3e 7846 583e 8f92 f23d 81bc c53d
00000100: 8964 4e3e 8d93 233e df43 6a3e de59 ab3c
00000110: 8c40 023e 1e5f 873d c3e1 2d3d c753 a43e
00000120: df01 493e 7bd6 cdbc 31f9 c33d e14b 123e
00000130: 508d b13e 24a8 c53e 6d2d 433d 2400 8d3e

weight f4 [80]
0.8948557 0.8922181 0.8658591 0.98467207 0.7640883 0.83867776 0.9209207 0.9576352
0.9143831 0.92793095 0.88901085 0.9758939 0.85642433 0.8249549 0.91486716 0.8730711
0.82905835 0.9567107 0.94949526 0.8619739 0.9131453 0.89715666 0.91898966 0.91181904
0.8858472 1.5468416 1.9006412 0.8877846 0.94969934 0.92436135 0.8954001 0.89793426
0.9497251 0.9417335 0.78470224 0.9009186 0.90706813 0.7997457 0.99791974 0.86169434
0.9829606 0.86177516 0.8688332 0.89738995 0.8731232 0.9425677 0.92842424 0.9188135
1.3074415 0.8114467 0.94187534 0.9402345 0.87404996 0.87342244 0.9353249 0.89429164
0.9144043 0.9454221 0.8924706 0.9438493 0.94797134 0.9367481 0.9372614 0.8788699
0.9189929 0.81402373 0.92389905 0.86599547 1.0030315 0.9041448 0.8846339 0.96369565
0.72195673 0.92857283 0.872771 0.8865954 0.7489384 0.9024833 0.8762262 0.9426762
00000000: 4315 653f 6868 643f f1a8 5d3f 7813 7c3f
00000010: 4a9b 433f 96b3 563f 76c1 6b3f 9527 753f
00000020: 0315 6a3f e28c 6d3f 3796 633f 2fd4 793f
00000030: a03e 5b3f 3f30 533f bc34 6a3f 9681 5f3f
00000040: 2b3d 543f feea 743f 1f12 733f 52aa 5c3f
00000050: e4c3 693f 0fac 653f e842 6b3f f96c 693f
00000060: e2c6 623f e8fe c53f 3648 f33f da45 633f
00000070: 7f1f 733f f2a2 6c3f f138 653f 05df 653f
00000080: 2f21 733f 7215 713f 3fe2 483f 9aa2 663f
00000090: 9e35 683f 22bc 4c3f ab77 7f3f 0098 5c3f
000000a0: 4ea3 7b3f 4c9d 5c3f da6b 5e3f 59bb 653f
000000b0: 0185 5f3f 1e4c 713f 36ad 6d3f 5d37 6b3f
000000c0: 3e5a a73f f9ba 4f3f be1e 713f 35b3 703f
000000d0: bdc1 5f3f 9d98 5f3f 7471 6f3f 4cf0 643f
000000e0: 6616 6a3f 2f07 723f f478 643f 1ca0 713f
000000f0: 40ae 723f b9ce 6f3f 5df0 6f3f 9efd 603f
00000100: 1e43 6b3f dc63 503f a684 6c3f e1b1 5d3f
00000110: 5663 803f 0976 673f 5e77 623f c2b4 763f
00000120: 28d2 383f f3b6 6d3f ec6d 5f3f ebf7 623f
00000130: 6dba 3f3f 2509 673f 5c50 603f 3a53 713f

bias f4 [80]
1.0025113 0.5356178 0.13453886 0.12475704 0.6502015 -0.2597677 0.48656663 -0.16688356
-0.014418365 -0.07386303 -0.32056388 0.29616958 -0.42429948 -0.22592239 0.004794252 0.7473059
-0.6376361 0.18377762 -0.057790924 -0.02991456 0.4229026 0.055036865 0.12716793 0.21131454
0.08303582 0.67939883 0.6096896 -0.028287357 -0.050543 0.14582975 0.12537159 -0.079992875
-0.12099944 -0.32303613 -0.3679073 -0.12236275 0.62823737 -0.1467361 -0.36166003 -0.40318972
-0.06915868 0.5062643 -0.14997594 0.14313857 0.12219489 0.2666948 -0.04480623 -0.24832448
0.4792443 0.014907823 0.29929957 0.2917783 0.01876042 0.24112031 -0.575816 -0.07480353
-0.18273789 -0.26859322 -0.40653458 -0.47206748 0.24612674 -0.45988798 -0.24550198 0.068453915
-0.38573053 -0.652545 -0.670111 0.19437863 0.19652092 -0.22554182 0.28617024 0.3403648
-0.60065526 0.20075284 0.6278176 0.092663504 -0.4605576 -0.40350989 0.5234843 -0.113440715
00000000: 4a52 803f 401e 093f 8ec4 093e 9e80 ff3d
00000010: 9b73 263f 4600 85be 431f f93e 86e3 2abe
00000020: 023b 6cbc 8045 97bd f320 a4be 8aa3 973e
00000030: c83d d9be 3358 67be 1a19 9d3b 714f 3f3f
00000040: 1f3c 23bf 3330 3c3e 2db6 6cbd 610f f5bc
00000050: b186 d83e 566e 613d 4f38 023e d762 583e
00000060: af0e aa3d 15ed 2d3f 9e14 1c3f e3ba e7bc
00000070: 2d06 4fbd 6554 153e 6961 003e 4ed3 a3bd
00000080: 8ece f7bd fe64 a5be 585e bcbe 5299 fabd
00000090: 2ad4 203f fd41 16be 812b b9be e26e cebe
000000a0: 11a3 8dbd 8a9a 013f 4b93 19be eb92 123e
000000b0: 5141 fa3d 398c 883e bd86 37bd c648 7ebe
000000c0: 825f f53e f13f 743c cb3d 993e f763 953e
000000d0: 74af 993c 3ee8 763e ad68 13bf 9832 99bd
000000e0: a41f 3bbe 0d85 89be 4d25 d0be d4b2 f1be
000000f0: a608 7c3e 7076 ebbe df64 7bbe 9131 8c3d
00000100: 797e c5be 300d 27bf 658c 2bbf 310b 473e
00000110: c83c 493e 6ff4 66be e884 923e 4c44 ae3e
00000120: 8bc4 19bf 2792 4d3e a7b8 203f 5dc6 bd3d
00000130: 35ce ebbe d998 cebe 1103 063f 9b53 e8bd

running_mean f4 [80]
0.79071987 0.9533718 0.9178039 0.43874085 0.4749975 0.81938976 0.6177396 0.4961531
0.8217426 0.7572028 0.79878724 0.77519107 0.78203654 0.76769036 0.80284905 0.8335706
0.4921767 0.7414068 0.61429155 0.5191007 0.86231655 0.73173857 0.6069185 0.63629055
0.73205715 0.39538652 0.3112078 0.64922816 0.9676 1.3074898 0.7836025 0.9865605
0.6355646 0.9769544 0.8691523 0.5990382 0.94270325 0.7332422 1.1962295 0.7729922
1.136272 0.9330721 1.146969 0.8361387 0.7617019 0.8168734 0.6022717 0.7512982
0.29338986 0.49156415 0.5150159 0.6970655 0.6045248 0.62868154 0.60732275 0.5770685
0.904503 0.53807116 0.7703172 0.5446307 0.6685764 0.88810396 0.7766706 0.65312964
0.7666277 0.8207413 0.7372821 0.61406577 0.7698758 0.6274705 0.6029433 0.9966392
0.96289396 0.61164683 0.84762704 0.77830637 1.0699794 1.1521246 0.55918926 0.92615676
00000000: 9e6c 4a3f 2d10 743f 32f5 6a3f a4a2 e03e
00000010: df32 f33e 87c3 513f 2f24 1e3f c707 fe3e
00000020: b95d 523f 0bd8 413f 527d 4c3f ec72 463f
00000030: 8c33 483f 5b87 443f 8487 4d3f e264 553f
00000040: 96fe fb3e d6cc 3d3f 3642 1d3f c9e3 043f
00000050: c7c0 5c3f 3853 3b3f 035f 1b3f f0e3 223f
00000060: 1968 3b3f 1a70 ca3e a156 9f3e d133 263f
00000070: a2b4 773f d35b a73f 2c9a 483f 3b8f 7c3f
00000080: 5db4 223f af19 7a3f c480 5e3f 915a 193f
00000090: 0055 713f c3b5 3b3f 0c1e 993f d1e2 453f
000000a0: 5c71 913f d0dd 6e3f e1cf 923f 300d 563f
000000b0: e5fe 423f 9d1e 513f 7a2e 1a3f 1455 403f
000000c0: 3237 963e 4cae fb3e 15d8 033f e272 323f
000000d0: 23c2 1a3f 46f1 203f 8179 1b3f c3ba 133f
000000e0: 828d 673f 08bf 093f 8233 453f eb6c 0b3f
000000f0: d327 2b3f c85a 633f e2d3 463f 8133 273f
00000100: b741 443f 1a1c 523f 85be 3c3f 6a33 1d3f
00000110: 9516 453f e8a1 203f 7e5a 1a3f bf23 7f3f
00000120: 3880 763f e394 1c3f 16fe 583f 163f 473f
00000130: 16f5 883f d278 933f 0727 0f3f 9c18 6d3f

running_var f4 [80]
0.8808014 0.84703565 0.5351232 0.34184712 0.336268 0.536586 0.6808084 0.59090644
0.579478 0.87523484 0.5608032 0.64769787 0.85168284 0.4107736 0.74319786 0.6986217
0.57274175 0.77200633 0.9034758 0.5114501 0.8479883 0.8743206 0.4345765 0.7294448
0.54964316 0.36989984 0.1831852 0.5674256 0.657056 0.51979405 0.5439054 0.64621323
0.67056996 0.7081214 0.5358359 0.4529044 0.69324327 0.46895137 0.56615645 0.6969839
0.7680322 0.5804951 0.6110744 0.5165353 0.7883752 0.74975485 0.54880655 0.6503796
0.12946655 0.49376965 0.47053742 0.80525064 0.4243367 0.66979295 0.74072725 0.5299985
0.8503479 0.5416066 0.5914558 0.5854088 0.6658452 0.75421506 0.7880369 0.7454708
0.45698765 0.6298553 0.9335104 0.837064 0.9859889 0.5770064 0.7200186 0.77543956
1.1280897 0.66312844 0.53952634 0.7115427 0.67768645 0.6481271 0.5320101 0.7549462
00000000: 337c 613f 54d7 583f d6fd 083f 9606 af3e
00000010: 522b ac3e b35d 093f 7649 2e3f a545 173f
00000020: ac58 143f 640f 603f cc90 0f3f 87cf 253f
00000030: e307 5a3f eb50 d23e 3742 3e3f dfd8 323f
00000040: 349f 123f 35a2 453f 314a 673f 65ee 023f
00000050: c315 593f 7ad3 5f3f d080 de3e e5bc 3a3f
00000060: 6ab5 0c3f 8363 bd3e e794 3b3e ce42 113f
00000070: d234 283f 3911 053f 623d 0b3f 3b6e 253f
00000080: 79aa 2b3f 7247 353f 8b2c 093f 16e3 e73e
00000090: 6478 313f 651a f03e a1ef 103f 896d 323f
000000a0: c29d 443f 549b 143f 5f6f 1c3f a83b 043f
000000b0: f5d2 493f efef 3f3f 967e 0c3f 477f 263f
000000c0: e192 043e 60cf fc3e 48ea f03e e824 4e3f
000000d0: a942 d93e 8d77 2b3f 4da0 3d3f fbad 073f
000000e0: 66b0 593f bba6 0a3f a669 173f 5add 153f
000000f0: d574 2a3f 3d14 413f c9bc 493f 2dd7 3e3f
00000100: 49fa e93e 323e 213f 8afa 6e3f d449 563f
00000110: c569 7c3f b1b6 133f 2453 383f 3583 463f
00000120: 3e65 903f c9c2 293f 661e 0a3f aa27 363f
00000130: dc7c 2d3f a8eb 253f d031 083f 2744 413f

weight f4 [40, 80]
0.13710593 0.08393777 0.007693885 -0.034229964 0.023851465 -0.027059179 0.048905406 -0.08652144
0.01254357 0.087846786 -0.018527871 0.04605669 -0.042797655 -0.042745244 -0.0118545545 0.096805654
-0.014766617 -0.031880483 0.010289674 -0.018481387 -0.01726246 0.017792404 -0.015671458 -0.011089059
0.03397621 -0.0077350903 -0.11994069 -0.01717143 0.061046086 0.09527669 0.029430564 -0.03806294
0.008655554 0.118700825 0.0031973477 -0.02957989 0.106259465 -0.04997031 -0.11865841 -0.024034
0.025384353 0.011489367 0.01239301 0.02435425 0.028791267 0.014746684 -0.05314917 0.016194938
0.0025794765 0.06391418 0.013401203 0.1104616 0.05952283 -0.03669388 -0.11995123 -0.0051378594
0.014734622 -0.039063565 -0.018035984 0.037736565 -0.00015477145 -0.08537896 -0.0034599183 0.0035719357
0.03705922 -0.10907702 -0.055440135 0.0033875634 0.006789592 -0.013795936 0.05148963 -0.010816913
-0.055547692 0.113930635 -0.04651666 0.030529296 -0.0822002 0.015311164 0.025008375 -0.07469416
0.029448252 0.046981167 -0.0030974266 0.023905305 -0.020107236 0.06628315 0.038035627 -0.031071804
0.003969007 -0.001161729 -0.096724905 0.08527712 0.015115735 0.041364614 -0.079283364 -0.046543736
-0.05565847 0.104220375 0.027485963 -0.007999208 -0.00298869 -0.038697023 -0.0040970417 -0.06628778
0.015191031 -0.0015918016 0.18850914 -0.044003773 -0.01906585 0.1278738 -0.014972806 -0.11721969
-0.05315856 -0.052261204 -0.03525873 -0.014008413 0.09717229 -0.019103015 -0.05344646 -0.0017670379
-0.05206364 -0.035921436 0.03194265 0.04022772 -0.038361125 -0.11692859 0.009420574 0.18511716
0.009239216 0.08209729 -0.05345872 0.029867524 -0.0107177645 -0.055546474 0.10430834 -0.08812554
-0.12831219 -0.043643992 -0.054812822 0.042716656 0.08539169 0.0015721672 0.013073555 0.0043764627
0.13439816 -0.01535823 -0.009463379 -0.013794034 -0.038507573 -0.0548029 -0.031460173 0.06032842
-0.08516099 -0.16439857 -0.045993388 0.058697045 0.07199871 0.043469526 0.008438779 -0.025321482
0.20930149 0.033023756 -0.034279935 -0.10525256 0.11465595 -0.1103532 -0.03584211 -0.011986539
-0.011660005 -0.06239329 0.0061426493 -0.026319357 -0.0471335 -0.02364066 0.044457726 0.12010155
-0.11171041 -0.06170448 -0.029049035 0.013871393 -0.038217187 0.015636595 0.08253628 0.012336804
-0.03449474 0.15940598 0.06989431 -0.024416402 -0.07077915 0.036717363 -0.03131417 0.0057871616
0.009441485 -0.07628844 0.021655586 -0.11978589 0.093120806 0.008851605 -0.06341059 -0.028489599
-0.043107457 -0.08637764 -0.06417779 -0.018813863 0.034297682 -0.009023075 -0.002314242 -0.019750984
0.009213112 -0.04647341 0.08100049 -0.008170377 -0.08733038 0.08769764 -0.009893446 0.009289182
-0.023352401 -0.06532835 -0.13538384 -0.038947962 0.004573103 -0.10121052 0.02138278 0.028507894
0.007450132 -0.05895001 -0.050890625 -0.014463281 0.039233904 0.11750264 -0.0076209316 0.07671215
-0.031004556 -0.0021524373 -0.016157806 -0.0034857246 -0.06864069 0.0122669 0.027959352 0.025128396
0.24874894 0.12515596 -0.08921158 0.01748933 0.026170796 -0.004589875 -0.07728469 0.13107339
-0.022836432 -0.08192619 0.051901653 -0.046021387 -0.045180082 -0.0675122 -0.106465235 0.09069368
00000000: 7f65 0c3e 91e7 ab3d fc1c fc3b b834 0cbd
00000010: 2664 c33c 36ab ddbc 0951 483d 2732 b1bd
00000020: 8c83 4d3c 04e9 b33d c3c7 97bc f1a5 3c3d
00000030: 984c 2fbd a315 2fbd 9b39 42bc 0b42 c63d
00000040: aeef 71bc 1c95 02bd 0596 283c 4766 97bc
00000050: 016a 8dbc 60c1 913c 6e61 80bc e2ae 35bc
00000060: a32a 0b3d a476 fdbb 77a3 f5bd 19ab 8cbc
00000070: 760b 7a3d 6d20 c33d 5e18 f13c e3e7 1bbd
00000080: 06d0 0d3c 6b19 f33d 988a 513b 8751 f2bc
00000090: 909e d93d abad 4cbd 2e03 f3bd f3e2 c4bc
000000a0: d9f2 cf3c e63d 3c3c 0d0c 4b3c 9082 c73c
000000b0: aadb eb3c 139c 713c f2b2 59bd 3fab 843c
000000c0: 6f0c 293b 70e5 823d b890 5b3c b139 e23d
000000d0: 36ce 733d 524c 16bd fea8 f5bd 7d5b a8bb
000000e0: 7c69 713c 1e01 20bd 33c0 93bc a891 1a3d
000000f0: 254a 22b9 2adb aebd ccbf 62bb 2317 6a3b
00000100: 69cb 173d c663 dfbd 3215 63bd e201 5e3b
00000110: 3a7b de3b 5908 62bc cae6 523d 6c39 31bc
00000120: fa85 63bd 7754 e93d 4188 3ebd 9318 fa3c
00000130: 9458 a8bd addb 7a3c 5dde cc3c 40f9 98bd
00000140: 763d f13c 536f 403d 32fe 4abb 0fd5 c33c
00000150: eeb7 a4bc 76bf 873d 3fcb 1b3d 4c8a febc
00000160: 720e 823b 2845 98ba b517 c6bd c5a5 ae3d
00000170: fda7 773c f16d 293d 515f a2bd a5a4 3ebd
00000180: 23fa 63bd 7e71 d53d 3e2a e13c 1c0f 03bc
00000190: e6dd 43bb c580 1ebd 7a40 86bb e3c1 87bd
000001a0: cde3 783c 00a4 d0ba 8a08 413e 4d3d 34bd
000001b0: fc2f 9cbc 59f1 023e 8050 75bc e010 f0bd
000001c0: cabc 59bd d80f 56bd 756b 10bd 8b83 65bc
000001d0: 4402 c73d ed7d 9cbc adea 5abd f49b e7ba
000001e0: af40 55bd 5b22 13bd 4cd6 023d d2c5 243d
000001f0: 8e20 1dbd 4278 efbd c058 1a3c 5a8f 3d3e
00000200: 1560 173c a022 a83d 88f7 5abd bdac f43c
00000210: 9099 2fbc b384 63bd 9c9f d53d 2a7b b4bd
00000220: 4564 03be 0bc4 32bd 6983 60bd a9f7 2e3d
00000230: d7e1 ae3d 2d11 ce3a 7732 563c 6e68 8f3b
00000240: ac9f 093e 16a1 7bbc 4a0c 1bbc 5f00 62bc
00000250: 1eba 1dbd 0179 60bd 62dc 00bd ef1a 773d
00000260: e368 aebd 1958 28be 9063 3cbd 506c 703d
00000270: 0f74 933d 1a0d 323d ce42 0a3c ff6e cfbc
00000280: 2153 563e eb43 073d 1e69 0cbd a78e d7bd
00000290: bdd0 ea3d dc00 e2bd 2dcf 12bd 3063 44bc
000002a0: 9b09 3fbc 1b90 7fbd 4748 c93b b19b d7bc
000002b0: 0f0f 41bd 0faa c1bc 4e19 363d cdf7 f53d
000002c0: 6dc8 e4bd d6bd 7cbd 3ef8 edbc d744 633c
000002d0: a089 1cbd 5118 803c c808 a93d 4e20 4a3c
000002e0: 5b4a 0dbd 523b 233e bf24 8f3d e804 c8bc
000002f0: a9f4 90bd f264 163d 4a43 00bd 3ba2 bd3b
00000300: 75b0 1a3c 1d3d 9cbd 0e67 b13c 4e52 f5bd
00000310: 1fb6 be3d 5206 113c 69dd 81bd 0563 e9bc
00000320: 7291 30bd c3e6 b0bd a56f 83bd 881f 9abc
00000330: ba7b 0c3d 85d5 13bc 8aaa 17bb d1cc a1bc
00000340: 98f2 163c e75a 3ebd 96e3 a53d 0cdd 05bc
00000350: 45da b2bd d29a b33d 1f18 22bc a731 183c
00000360: 894d bfbc dfca 85bd 10a2 0abe e687 1fbd
00000370: f8d9 953b 7647 cfbd f12a af3c 6389 e93c
00000380: 3d20 f43b 9175 71bd b072 50bd 66f7 6cbc
00000390: bbb3 203d 39a5 f03d 02b9 f9bb 421b 9d3d
000003a0: 44fd fdbc e80f 0dbb 605d 84bc c170 64bb
000003b0: 7d93 8cbd 1cfb 483c 030b e53c 11da cd3c
000003c0: 0bb8 7e3e e228 003e 90b4 b6bd c945 8f3c
000003d0: 2364 d63c aa66 96bb 7047 9ebd 1a38 063e
000003e0: 7813 bbbc ebc8 a7bd d496 543d ec80 3cbd
000003f0: c00e 39bd d643 8abd 720a dabd 9cbd b93d

bias f4 [40]
0.50076985 -0.01220431 0.2720856 0.2032654 0.22598547 0.29196212 -0.0061924835 0.45246935
0.28949663 0.09983692 0.30765137 -0.19118844 -0.13424492 0.10897047 0.5650946 0.45153216
-0.009834942 0.19118008 0.19543661 0.071269 -0.15777953 0.14381537 0.23244828 0.27700338
0.11351708 0.12157608 0.31658968 0.13359673 0.28854236 0.21594097 0.10787963 -0.024743212
0.15651527 -0.028916035 0.41522115 0.1938403 0.1648812 0.3605471 0.3234904 0.06850749
00000000: 7432 003f 96f4 47bc ce4e 8b3e ce24 503e
00000010: bc68 673e 0f7c 953e 51ea cabb 10aa e73e
00000020: e738 943e 4d77 cc3d 7b84 9d3e e7c6 43be
00000030: 8077 09be e92b df3d 0aaa 103f 392f e73e
00000040: bd22 21bc b6c4 433e 8920 483e 7bf5 913d
00000050: f590 21be 5644 133e ec06 6e3e 63d3 8d3e
00000060: a57b e83d e1fc f83d 0b18 a23e 95cd 083e
00000070: d3bb 933e a11f 5d3e ffef dc3d 47b2 cabc
00000080: 8a45 203e 52e1 ecbc de97 d43e 127e 463e
00000090: 9ed6 283e a199 b83e 89a0 a53e a84d 8c3d

weight f4 [40]
0.9783448 0.9409404 0.87363166 0.905282 0.959658 0.9590836 0.8564025 0.84373957
0.91420484 0.8490485 0.96467525 1.0834491 1.0053183 0.93898445 0.8736389 0.90330833
1.0892552 0.83967954 0.8052749 0.8587004 1.0513815 0.9131695 0.8843845 0.9211733
0.9107315 0.83603454 0.95095974 0.8567851 0.75810826 0.95323896 0.87057954 0.9291739
0.847613 0.9842908 0.90036786 0.93932116 0.87599766 0.91322136 0.8436331 0.96092814
00000000: ce74 7a3f 78e1 703f 53a6 5f3f 90c0 673f
00000010: 26ac 753f 8186 753f 323d 5b3f 51ff 573f
00000020: 5409 6a3f 3e5b 593f f5f4 763f 76ae 8a3f
00000030: 45ae 803f 4961 703f cda6 5f3f 373f 673f
00000040: b76c 8b3f 3df5 563f 7f26 4e3f cad3 5b3f
00000050: ab93 863f 7ac5 693f 0667 623f 03d2 6b3f
00000060: b325 693f 5c06 563f 1972 733f 4556 5b3f
00000070: 6213 423f 7807 743f 4dde 5e3f 57de 6d3f
00000080: 2afd 583f 7bfa 7b3f 827e 663f 5a77 703f
00000090: 6241 603f e0c8 693f 57f8 573f 63ff 753f

bias f4 [40]
0.19917367 0.63798416 -0.48945448 0.27721992 -0.38670698 0.1987365 -0.17756402 0.49039719
0.3562357 0.2776016 0.103569776 0.13946974 -0.8905201 0.025648639 -0.48158392 -0.525636
-0.060795646 -0.08901504 -0.46322837 0.15802707 0.01670965 0.38449615 -0.76484513 0.6153415
0.3635669 -0.9002548 0.62372667 1.193971 -0.63117355 0.4986579 0.35822406 -0.29664615
0.4347737 0.077382095 -0.20457263 0.2236298 -0.005991432 0.0044160155 -0.6537109 0.20043886
00000000: 2ff4 4b3e ee52 233f c799 fabe c5ef 8d3e
00000010: 75fe c5be 9581 4b3e 58d3 35be 5715 fb3e
00000020: 8764 b63e cc21 8e3e 641c d43d 28d1 0e3e
00000030: 20f9 63bf 181d d23c 2b92 f6be 1590 06bf
00000040: db04 79bd 844d b6bd 452c edbe d9d1 213e
00000050: ade2 883c aedc c43e e4cc 43bf 0587 1d3f
00000060: 7125 ba3e 1977 66bf 8dac 1f3f 0bd4 983f
00000070: 9794 21bf 1750 ff3e 2569 b73e 01e2 97be
00000080: a99a de3e 817a 9e3d 7d7b 51be 36ff 643e
00000090: c653 c4bb 39b4 903b 9959 27bf d83f 4d3e
